…
ews for each question-answer pair, providing away to analyze the quality of the responses givenby licensed therapists. Answer distributions:In this dataset, 433 li-censed therapists answered 940 different questions,summing to 2775 question-answer pairs with 10attributes: questionID, questionTitle, questionText,questionLink, topic, therapistInfo, therapistURL,answerText, upvotes, and views. See and 8for details. Number of Answers log(Frequency) Distribution of Answers per Question",
  "Archetecture:": "BertForSequenceClassification((bert): BertModel((embeddings): BertEmbeddings((word_embeddings): Embedding(30522, 768, padding_idx=0)(position_embeddings): Embedding(512, 768)(token_type_embeddings): Embedding(2, 768)(LayerNorm): LayerNorm((768,), eps=1e-12, elementwise_affine=True)(dropout): Dropout(p=0.1, inplace=False))(encoder): BertEncoder((layer): ModuleList((0-11): 12 x BertLayer((attention): BertAttention((self): BertSelfAttention((query): Linear(in_features=768, out_features=768, bias=True)(key): Linear(in_features=768, out_features=768, bias=True)(value): Linear(in_features=768, out_features=768, bias=True)(dropout): Dropout(p=0.1, inplace=False))(output): BertSelfOutput((dense): Linear(in_features=768, out_features=768, bias=True)(LayerNorm): LayerNorm((768,), eps=1e-12, elementwise_affine=True)(dropout): Dropout(p=0.1, inplace=False)))(intermediate): BertIntermediate((dense): Linear(in_features=768, out_features=3072, bias=True)(intermediate_act_fn): GELUActivation())(output): BertOutput((dense): Linear(in_features=3072, out_features=768, bias=True)(LayerNorm): LayerNorm((768,), eps=1e-12, elementwise_affine=True)(dropout): Dropout(p=0.1, inplace=False)))))(pooler): BertPooler((dense): Linear(in_features=768, out_features=768, bias=True)(activation): Tanh()))(dropout): Dropout(p=0.1, inplace=False)(classifier): Linear(in_features=768, out_features=2, bias=True))",
  "Architecture:": "BertForSequenceClassification((bert): BertModel((embeddings): BertEmbeddings((word_embeddings): Embedding(30522, 768, padding_idx=0)(position_embeddings): Embedding(512, 768)(token_type_embeddings): Embedding(2, 768)(LayerNorm): LayerNorm((768,), eps=1e-12, elementwise_affine=True)(dropout): Dropout(p=0.1, inplace=False))(encoder): BertEncoder((layer): ModuleList((0-11): 12 x BertLayer((attention): BertAttention((self): BertSelfAttention((query): Linear(in_features=768, out_features=768, bias=True)(key): Linear(in_features=768, out_features=768, bias=True)(value): Linear(in_features=768, out_features=768, bias=True)(dropout): Dropout(p=0.1, inplace=False))(output): BertSelfOutput((dense): Linear(in_features=768, out_features=768, bias=True)(LayerNorm): LayerNorm((768,), eps=1e-12, elementwise_affine=True)(dropout): Dropout(p=0.1, inplace=False)))(intermediate): BertIntermediate((dense): Linear(in_features=768, out_features=3072, bias=True)(intermediate_act_fn): GELUActivation())(output): BertOutput((dense): Linear(in_features=3072, out_features=768, bias=True)(LayerNorm): LayerNorm((768,), eps=1e-12, elementwise_affine=True)(dropout): Dropout(p=0.1, inplace=False)))))(pooler): BertPooler((dense): Linear(in_features=768, out_features=768, bias=True)(activation): Tanh()))(dropout): Dropout(p=0.1, inplace=False)(classifier): Linear(in_features=768, out_features=5, bias=True))",
  "CPrompt Design": "In this section, we present six different prompttemplates that are used throughout the evaluationof SOULSPEAK.The simplistic prompt design, default, consistsof a simple persona of a therapist and few-shotprompting enabled by the knowledge base.The following two prompt designs (7feelings and7feelings2tones) are built on default mor
…
